…
        (2): ReLU(inplace=True)
        (3): Dropout(p=0, inplace=False)
      )
    )
    (1): Conv2d(48, 6, kernel_size=(1, 1), stride=(1, 1))
  )
)
2026-04-26 17:42:01,127 [INFO] - 
=============================================================================================================================
Layer (type:depth-idx)                                                      Output Shape              Param #
=============================================================================================================================
NuLite                                                                      [1, 6, 256, 256]          --
├─FastViTEncoder: 1-1                                                       [1, 384]                  --
│    └─FeatureListNet: 2-1                                                  [1, 48, 64, 64]           --
│    │    └─MobileOneBlock: 3-1                                             [1, 48, 128, 128]         1,632
│    │    └─MobileOneBlock: 3-2                                             [1, 48, 64, 64]           672
│    │    └─MobileOneBlock: 3-3                                             [1, 48, 64, 64]           2,496
│    │    └─FastVitStage: 3-4                                               [1, 48, 64, 64]           34,848
│    │    └─FastVitStage: 3-5                                               [1, 96, 32, 32]           140,544
│    │    └─FastVitStage: 3-6                                               [1, 192, 16, 16]          991,872
│    │    └─FastVitStage: 3-7                                               [1, 384, 8, 8]            1,999,872
│    └─Sequential: 2-2                                                      [1, 384]                  --
│    │    └─AdaptiveAvgPool2d: 3-8                                          [1, 384, 1, 1]            --
│    │    └─Flatten: 3-9                                                    [1, 384]                  --
├─Linear: 1-2                                                               [1, 19]                   7,315
├─Sequential: 1-3                                                           --                        --
│    └─Sequential: 2-3                                                      [1, 192, 16, 16]          --
│    │    └─Conv2DBlock: 3-10                                               [1, 192, 8, 8]            664,128
│    │    └─ConvTranspose2d: 3-11                                           [1, 192, 16, 16]          147,648
│    └─Sequential: 2-4                                                      [1, 96, 32, 32]           --
│    │    └─Conv2DBlock: 3-12                                               [1, 192, 16, 16]          664,128
│    │    └─Conv2DBlock: 3-13                                               [1, 96, 16, 16]           166,176
│    │    └─ConvTranspose2d: 3-14                                           [1, 96, 32, 32]           36,960
│    └─Sequential: 2-5                                                      [1, 48, 64, 64]           --
│    │    └─Conv2DBlock: 3-15                                               [1, 96, 32, 32]           166,176
│    │    └─Conv2DBlock: 3-16                                               [1, 48, 32, 32]           41,616
│    │    └─ConvTranspose2d: 3-17                                           [1, 48, 64, 64]           9,264
│    └─Sequential: 2-6                                                      [1, 48, 128, 128]         --
│    │    └─Conv2DBlock: 3-18                                               [1, 48, 64, 64]           41,616
│    │    └─ConvTranspose2d: 3-19                                           [1, 48, 128, 128]         9,264
│    └─Sequential: 2-7                                                      [1, 48, 256, 256]         --
│    │    └─Conv2DBlock: 3-20                                               [1, 48, 128, 128]         20,880
│    │    └─ConvTranspose2d: 3-21                                           [1, 48, 256, 256]         9,264
├─Sequential: 1-4                                                           [1, 48, 256, 256]         --
│    └─Conv2DBlock: 2-8                                                     [1, 48, 256, 256]         --
│    │    └─Sequential: 3-22                                                [1, 48, 256, 256]         1,440
├─AttentionGate: 1-5                                                        [1, 48, 256, 256]         --
│    └─Sequential: 2-9                                                      [1, 24, 256, 256]         --
│    │    └─Conv2d: 3-23                                                    [1, 24, 256, 256]         1,152
│    │    └─BatchNorm2d: 3-24                                               [1, 24, 256, 256]         48
│    └─Sequential: 2-10                                                     [1, 24, 256, 256]         --
│    │    └─Conv2d: 3-25                                                    [1, 24, 256, 256]         1,152
│    │    └─BatchNorm2d: 3-26                                               [1, 24, 256, 256]         48
│    └─ReLU: 2-11                                                           [1, 24, 256, 256]         --
│    └─Sequential: 2-12                                                     [1, 1, 256, 256]          --
│    │    └─Conv2d: 3-27                                                    [1, 1, 256, 256]          24
│    │    └─BatchNorm2d: 3-28                                               [1, 1, 256, 256]          2
│    │    └─Sigmoid: 3-29                                                   [1, 1, 256, 256]          --
├─Sequential: 1-6                                                           [1, 2, 256, 256]          --
│    └─Conv2DBlock: 2-13                                                    [1, 48, 256, 256]         --
│    │    └─Sequential: 3-30                                                [1, 48, 256, 256]         41,616
│    └─Conv2d: 2-14                                                         [1, 2, 256, 256]          98
├─Sequential: 1-7                                                           [1, 2, 256, 256]          --
│    └─Conv2DBlock: 2-15                                                    [1, 48, 256, 256]         --
│    │    └─Sequential: 3-31                                                [1, 48, 256, 256]         41,616
│    └─Conv2d: 2-16                                                         [1, 2, 256, 256]          98
├─Sequential: 1-8                                                           [1, 6, 256, 256]          --
│    └─Conv2DBlock: 2-17                                                    [1, 48, 256, 256]         --
│    │    └─Sequential: 3-32                                                [1, 48, 256, 256]         41,616
│    └─Conv2d: 2-18                                                         [1, 6, 256, 256]          294
=============================================================================================================================
Total params: 5,285,575
Trainable params: 5,285,575
Non-trainable params: 0
Total mult-adds (Units.GIGABYTES): 10.98
=============================================================================================================================
Input size (MB): 0.79
Forward/backward pass size (MB): 409.53
…
